…
Start training model: simplekt, embtype: qid, save_dir: saved_model/nips_task34_simplekt_qid_saved_model_42_0_0.1_256_256_2_4_0.5_0.5_0.5_50_256_256_4_2_0.0001_1_1_dbf22456-7444-4e81-9057-d3ba3ca8ff04, dataset_name: nips_task34
model_config: {'dropout': 0.1, 'final_fc_dim': 256, 'final_fc_dim2': 256, 'num_layers': 2, 'nheads': 4, 'loss1': 0.5, 'loss2': 0.5, 'loss3': 0.5, 'start': 50, 'd_model': 256, 'd_ff': 256, 'num_attn_heads': 4, 'n_blocks': 2, 'learning_rate': 0.0001, 'use_wandb': 1, 'add_uuid': 1}
train_config: {'batch_size': 64, 'num_epochs': 200, 'optimizer': 'adam', 'seq_len': 200}
2024-09-04 03:20:30 - main - said: init_model
model_name:simplekt
model_name: simplekt, emb_type: qid
model is simpleKT(
  (difficult_param): Embedding(949, 256)
  (q_embed_diff): Embedding(58, 256)
  (qa_embed_diff): Embedding(115, 256)
  (q_embed): Embedding(57, 256)
  (qa_embed): Embedding(2, 256)
  (model): Architecture(
    (blocks_2): ModuleList(
      (0): TransformerLayer(
        (masked_attn_head): MultiHeadAttention(
          (v_linear): Linear(in_features=256, out_features=256, bias=True)
          (k_linear): Linear(in_features=256, out_features=256, bias=True)
          (dropout): Dropout(p=0.1, inplace=False)
          (out_proj): Linear(in_features=256, out_features=256, bias=True)
        )
        (layer_norm1): LayerNorm((256,), eps=1e-05, elementwise_affine=True)
        (dropout1): Dropout(p=0.1, inplace=False)
        (linear1): Linear(in_features=256, out_features=256, bias=True)
        (activation): ReLU()
        (dropout): Dropout(p=0.1, inplace=False)
        (linear2): Linear(in_features=256, out_features=256, bias=True)
        (layer_norm2): LayerNorm((256,), eps=1e-05, elementwise_affine=True)
        (dropout2): Dropout(p=0.1, inplace=False)
      )
      (1): TransformerLayer(
        (masked_attn_head): MultiHeadAttention(
          (v_linear): Linear(in_features=256, out_features=256, bias=True)
          (k_linear): Linear(in_features=256, out_features=256, bias=True)
          (dropout): Dropout(p=0.1, inplace=False)
          (out_proj): Linear(in_features=256, out_features=256, bias=True)
        )
        (layer_norm1): LayerNorm((256,), eps=1e-05, elementwise_affine=True)
        (dropout1): Dropout(p=0.1, inplace=False)
        (linear1): Linear(in_features=256, out_features=256, bias=True)
        (activation): ReLU()
        (dropout): Dropout(p=0.1, inplace=False)
        (linear2): Linear(in_features=256, out_features=256, bias=True)
        (layer_norm2): LayerNorm((256,), eps=1e-05, elementwise_affine=True)
        (dropout2): Dropout(p=0.1, inplace=False)
      )
    )
    (position_emb): CosinePositionalEmbedding()
  )
  (out): Sequential(
    (0): Linear(in_features=512, out_features=256, bias=True)
    (1): ReLU()
    (2): Dropout(p=0.1, inplace=False)
    (3): Linear(in_features=256, out_features=256, bias=True)
    (4): ReLU()
    (5): Dropout(p=0.1, inplace=False)
    (6): Linear(in_features=256, out_features=1, bias=True)
  )
)
2024-09-04 03:20:32 - main - said: train model
ts.shape: (223341,), ps.shape: (223341,)
Epoch: 1, validauc: 0.7281, validacc: 0.6693, best epoch: 1, best auc: 0.7281, train loss: 0.6286302763853441, emb_type: qid, model: simplekt, save_dir: saved_model/nips_task34_simplekt_qid_saved_model_42_0_0.1_256_256_2_4_0.5_0.5_0.5_50_256_256_4_2_0.0001_1_1_dbf22456-7444-4e81-9057-d3ba3ca8ff04
…
