…
    loss = model_forward(model, data)
           ^^^^^^^^^^^^^^^^^^^^^^^^^^
  File "/home/zhjy/lizz/anaconda3/envs/pykt/lib/python3.11/site-packages/pykt/models/train_model.py", line 128, in model_forward
    loss = cal_loss(model, ys, r, rshft, sm, preloss)
           ^^^^^^^^^^^^^^^^^^^^^^^^^^^^^^^^^^^^^^^^^^
  File "/home/zhjy/lizz/anaconda3/envs/pykt/lib/python3.11/site-packages/pykt/models/train_model.py", line 47, in cal_loss
    return loss
           ^^^^
UnboundLocalError: cannot access local variable 'loss' where it is not associated with a value
model is simpleKT(
  (difficult_param): Embedding(17738, 256)
  (q_embed_diff): Embedding(124, 256)
  (qa_embed_diff): Embedding(247, 256)
  (q_embed): Embedding(123, 256)
  (qa_embed): Embedding(2, 256)
  (model): Architecture(
    (blocks_2): ModuleList(
      (0): TransformerLayer(
        (masked_attn_head): MultiHeadAttention(
          (v_linear): Linear(in_features=256, out_features=256, bias=True)
          (k_linear): Linear(in_features=256, out_features=256, bias=True)
          (dropout): Dropout(p=0.1, inplace=False)
          (out_proj): Linear(in_features=256, out_features=256, bias=True)
        )
        (layer_norm1): LayerNorm((256,), eps=1e-05, elementwise_affine=True)
        (dropout1): Dropout(p=0.1, inplace=False)
        (linear1): Linear(in_features=256, out_features=256, bias=True)
        (activation): ReLU()
        (dropout): Dropout(p=0.1, inplace=False)
        (linear2): Linear(in_features=256, out_features=256, bias=True)
        (layer_norm2): LayerNorm((256,), eps=1e-05, elementwise_affine=True)
        (dropout2): Dropout(p=0.1, inplace=False)
      )
      (1): TransformerLayer(
        (masked_attn_head): MultiHeadAttention(
          (v_linear): Linear(in_features=256, out_features=256, bias=True)
          (k_linear): Linear(in_features=256, out_features=256, bias=True)
          (dropout): Dropout(p=0.1, inplace=False)
          (out_proj): Linear(in_features=256, out_features=256, bias=True)
        )
        (layer_norm1): LayerNorm((256,), eps=1e-05, elementwise_affine=True)
        (dropout1): Dropout(p=0.1, inplace=False)
        (linear1): Linear(in_features=256, out_features=256, bias=True)
        (activation): ReLU()
        (dropout): Dropout(p=0.1, inplace=False)
        (linear2): Linear(in_features=256, out_features=256, bias=True)
        (layer_norm2): LayerNorm((256,), eps=1e-05, elementwise_affine=True)
        (dropout2): Dropout(p=0.1, inplace=False)
      )
    )
    (position_emb): CosinePositionalEmbedding()
  )
  (out): Sequential(
    (0): Linear(in_features=512, out_features=256, bias=True)
    (1): ReLU()
    (2): Dropout(p=0.1, inplace=False)
    (3): Linear(in_features=256, out_features=256, bias=True)
    (4): ReLU()
    (5): Dropout(p=0.1, inplace=False)
    (6): Linear(in_features=256, out_features=1, bias=True)
  )
)
2024-09-03 08:16:12 - main - said: train model